…
          "base_uri": "https://localhost:8080/"
        },
        "id": "3-YwiuVBwuzd",
        "outputId": "077d0521-0ff0-499d-dc00-73d90eeb9528"
      },
      "execution_count": 6,
      "outputs": [
        {
          "output_type": "stream",
          "name": "stdout",
          "text": [
            "Model: \"sequential\"\n",
            "_________________________________________________________________\n",
            " Layer (type)                Output Shape              Param #   \n",
            "=================================================================\n",
            " conv2d (Conv2D)             (None, 254, 254, 32)      896       \n",
            "                                                                 \n",
            " max_pooling2d (MaxPooling2D  (None, 127, 127, 32)     0         \n",
            " )                                                               \n",
            "                                                                 \n",
            " conv2d_1 (Conv2D)           (None, 125, 125, 64)      18496     \n",
            "                                                                 \n",
            " max_pooling2d_1 (MaxPooling  (None, 62, 62, 64)       0         \n",
            " 2D)                                                             \n",
            "                                                                 \n",
            " conv2d_2 (Conv2D)           (None, 60, 60, 128)       73856     \n",
            "                                                                 \n",
            " max_pooling2d_2 (MaxPooling  (None, 30, 30, 128)      0         \n",
            " 2D)                                                             \n",
            "                                                                 \n",
            " flatten (Flatten)           (None, 115200)            0         \n",
            "                                                                 \n",
            " dense (Dense)               (None, 128)               14745728  \n",
            "                                                                 \n",
            " dense_1 (Dense)             (None, 64)                8256      \n",
            "                                                                 \n",
            " dense_2 (Dense)             (None, 1)                 65        \n",
            "                                                                 \n",
            "=================================================================\n",
            "Total params: 14,847,297\n",
            "Trainable params: 14,847,297\n",
            "Non-trainable params: 0\n",
            "_________________________________________________________________\n"
          ]
…
